code/week5 - code/mnist_conv_model.pth (torch, 90751 bytes, 8 tensors)

weight f4 [10, 1, 3, 3]
000000 d3 96 94 be 0c b2 e8 be 40 f5 d6 be b1 dc 31 3e
       -0.2902132 -0.4544834 -0.41983986 0.17369343
000010 a3 08 51 3e a6 a8 7c 3e c7 2c f5 3e 4c 2e a7 3e
       0.20413451 0.2467371 0.47885725 0.3265251
000020 10 3c 9a 3e 00 02 79 3a 93 6f 88 be 08 04 09 be
       0.3012395 0.0009498894 -0.26647624 -0.13380444
000030 98 1b 79 3d 40 45 53 3d e7 97 95 be 6b 94 90 be
       0.06081733 0.051579714 -0.29217455 -0.28238234
000040 a6 9b ed bd 48 1d 57 3d 52 fc de 3e 07 af 8a be
       -0.11601953 0.05251816 0.4355188 -0.2708666
000050 0c 56 bf be 5b da be 3e 39 49 dc 3c 78 e6 df be
       -0.37370336 0.37275967 0.026890384 -0.4373052
000060 f1 0f e4 3d 9c dd fa 3e 1d e2 0a 3f 11 f3 ee be
       0.11135853 0.489972 0.5425127 -0.4666982
000070 ad 03 20 bf ac 25 db be a6 5d 35 3e e7 54 ba bb
       -0.6250561 -0.4280218 0.17711505 -0.0056863907
000080 09 df 7a 3e 23 c3 fc 3e 84 47 51 3f 55 24 47 3f
       0.24499144 0.49367628 0.8174975 0.77789813
000090 38 01 ce 3e 41 4f 4f be 6b ae 38 be 32 b4 f9 3d
       0.40235305 -0.20245077 -0.18035285 0.12192573
0000a0 cc bd c9 3e 78 55 a6 3e 67 06 ec 3e b0 df 9d bd
       0.39402616 0.32487082 0.46098635 -0.07708681
0000b0 f3 bd 50 3d aa 46 ac bd 82 3e a7 be c5 df 49 3d
       0.0509624 -0.084119156 -0.32664877 0.04928567
0000c0 8f 8d b8 be 72 b4 35 be ec 7e d8 3e ed 55 c7 be
       -0.360455 -0.17744616 0.42284334 -0.38932744
0000d0 0c c7 a1 3e d2 dd cb 3e bb 4a a6 be 0c fb 0a be
       0.31597173 0.39817673 -0.3247889 -0.1357233
0000e0 1d 3b 59 be 3d 04 85 be 2d 8a 1f 3e a2 ea ee bd
       -0.21213956 -0.25979796 0.15580054 -0.116658464
0000f0 ed 8a b7 bd 55 ea c8 3e 33 a8 e0 3e 7e 29 3d 3f
       -0.08962045 0.3924128 0.43878326 0.7389144
000100 70 c9 96 3e e1 99 28 bd f3 b2 40 3f 96 3b 52 3f
       0.2945056 -0.041162375 0.75273055 0.8212217
000110 cd 2c 9e 3e c6 00 40 3f bf 14 55 3f f4 e0 49 3f
       0.30893555 0.7500118 0.8323478 0.78858876
000120 13 86 f9 3e ac 59 04 3f 4a 57 d6 3e 02 3d 4e be
       0.48735103 0.5169933 0.4186347 -0.2014046
000130 2b 49 2a be e8 41 f9 3e 13 cf ed be 28 bc 8c be
       -0.16629474 0.48683095 -0.46447048 -0.27487302
000140 e2 23 fe be 8f c2 ec 3e 99 2d 07 3f a5 f4 94 3e
       -0.4963675 0.46242186 0.5280395 0.290929
000150 30 19 47 3f d5 1f b8 3e 30 e6 84 be d8 d3 31 3f
       0.7777281 0.35961786 -0.2595687 0.6946387
000160 55 42 fd 3e 09 05 c4 be
       0.4946467 -0.38285092

bias f4 [10]
000000 de 50 22 ba 60 9d 3b be 31 3e 2e bd 0f 92 ff 3d
       -0.000619186 -0.18321753 -0.04253978 0.1247903
000010 76 93 ec 3e 5f e3 c2 3d 15 e6 d7 bd 3e f4 f0 ba
       0.46206254 0.09516024 -0.105419315 -0.0018383337
000020 4b 14 c6 3d 55 95 55 bd
       0.09671839 -0.052144367

weight f4 [20, 10, 5, 5]
000000 8d a4 59 3d 30 6a 1b 3d 88 ee e2 bc d6 51 8e 3c
       0.053135443 0.037943065 -0.027701631 0.017373007
000010 d6 39 d7 3c 89 89 3b bd 36 79 4e bd ce 57 6a bd
       0.026272696 -0.04578546 -0.050408565 -0.057212643
000020 57 97 62 3d 9f c2 e8 3a 5d 0a 87 3b 7d 4d 74 bd
       0.05532011 0.0017758197 0.0041211084 -0.05964421
000030 31 d9 28 bd da 57 8c bd 7e 03 1f be 83 2b 53 3d
       -0.041222755 -0.06852694 -0.15528676 0.051555168
000040 3e 5e 5c bd a2 6a 58 bd c1 3c 65 bd 9f 63 2d 3c
       -0.053800814 -0.052836068 -0.055966143 0.010582834
000050 83 85 91 bb 3a 80 b1 3b e2 97 00 be a5 73 85 bd
       -0.0044409647 0.005416897 -0.12557939 -0.06516198
000060 fc 24 12 bc 80 21 0f 3a 1c a1 63 3d 80 96 13 3d
       -0.008919951 0.0005460009 0.055573568 0.0360322
000070 92 f6 4b bd da e4 f0 bc 36 bb 86 bc 48 8f c1 3c
       -0.049795695 -0.029406 -0.016446691 0.023627892
000080 88 f4 05 bc 00 e9 c8 39 18 28 e9 3c f0 09 29 bc
       -0.008175977 0.0003832057 0.028461501 -0.010317311
000090 3e 02 7d bd b6 d1 79 3d 58 a5 7b bc 98 c1 9c 3c
       -0.061769716 0.06099101 -0.015359245 0.019135281
0000a0 38 8c c5 bc 6e 4d 5a 3d 16 b7 24 3d 66 58 09 3d
       -0.024114713 0.0532965 0.040213667 0.03353157
0000b0 ac bf 5b 3d 8c e6 e7 3c 40 f3 39 3b 60 3b 15 3d
       0.05364959 0.028308176 0.0028373748 0.036433578
0000c0 9e ac db bc 12 59 46 3d d9 cc 76 3d 5f ae 87 bd
       -0.026815709 0.048424788 0.06025395 -0.066250555
0000d0 ab 81 d9 bb d3 2d 09 3d 6c 86 bc 3d ad e0 1f 3d
       -0.006637772 0.033490967 0.092053264 0.039032627
0000e0 aa 51 2d bd ba f9 09 bd da 97 69 bd 3a 1a e7 bc
       -0.04231421 -0.033685423 -0.057029583 -0.028210748
0000f0 75 2e 89 bd b7 7a fa bd 59 25 29 be 90 f1 66 3b
       -0.06698314 -0.12230437 -0.16518153 0.0035239197
000100 eb fa dd 3d bc 7b 0d bc 4a aa e1 bd 88 c4 ff bd
       0.108388744 -0.008635458 -0.11018808 -0.12488657
000110 44 d0 f8 3d 26 58 bd 3d 50 6a 54 3d 6b 89 d7 bd
       0.121490985 0.092453286 0.0518592 -0.10524257
000120 35 c9 99 3c 2f 99 21 3d 3a 0d d8 3d 93 50 95 3c
       0.0187727 0.039452728 0.10549398 0.018226897
000130 ec 0e b6 3c bf d7 14 be 54 95 94 bd 3b 0d ce 3c
       0.022223912 -0.14535426 -0.072550446 0.025152793
000140 42 57 db 3c 32 04 13 be 68 30 e4 3c 29 b9 a1 3d
       0.026775006 -0.14357069 0.027855113 0.078966446
000150 2c ad 44 bd 4d 72 df bc ef d1 bd bd 0f c4 17 bd
       -0.048016712 -0.027276183 -0.09268557 -0.03705221
000160 f4 db cd bb 88 cd e9 bd bf 32 8d bd 37 da ac bc
       -0.006282324 -0.11416155 -0.06894445 -0.021100147
000170 7b 54 be bd f0 fb f7 bd e2 cd eb bc ac 81 e1 bc
       -0.09293457 -0.121086 -0.028784696 -0.027527653
000180 b9 d2 18 be 10 3a fc bd 7f e9 92 bd 16 77 5d bc
       -0.14924134 -0.12315762 -0.07173442 -0.013517162
000190 97 0e 71 3d 00 d1 ae bc 19 2d ad bd ea b4 7e bd
       0.058851805 -0.021339893 -0.08455867 -0.06218425
0001a0 cb d8 f6 3c 6b 42 ab 3d 35 cf bd bd 31 ce 80 bd
       0.030132672 0.083622776 -0.09268037 -0.06289328
0001b0 54 93 16 bd 7e fe 74 bc 2c 0c 80 3d 89 0f 4c bc
       -0.036761597 -0.014953254 0.062523216 -0.012454876
0001c0 f8 54 d8 bd 42 b7 41 bd de 4a 45 bc 62 ae 8c b9
       -0.105630815 -0.04729391 -0.0120417755 -0.00026832806
0001d0 38 ef f6 bd 7b 1d 5e bc 94 f6 97 bc c9 e5 44 3d
       -0.12057346 -0.013556833 -0.018550195 0.048070703
0001e0 89 c3 1c bd 00 e2 8e bd b4 88 39 3b d7 bd 49 3d
       -0.038272414 -0.069767 0.0028310241 0.04925331
0001f0 e8 5c 35 bc 5a 71 00 3a ed ca 24 bb 2c 7e 70 bd
       -0.011069514 0.0004899703 -0.0025145367 -0.058714077
000200 17 2c 7d 3d 32 20 c1 3c 9a 6d 3b bd 7d 3d 33 3b
       0.061809625 0.023574922 -0.04575882 0.0027349882
000210 47 a2 f7 3d 45 3f ee 3d b4 5c 9d bc c0 8e 50 bd
       0.12091499 0.116331615 -0.019209243 -0.050917387
000220 ce a4 b9 3d 76 7b 2d 3e fd 2f 1d 3d 6a 8f 39 bd
       0.09064637 0.16941628 0.038375843 -0.045302786
000230 7b 6a 96 bc e7 4a e8 3c e8 65 13 3d 9d db 8b bd
       -0.01836132 0.028356029 0.035985857 -0.06828997
000240 fd 1c b2 bd 06 21 15 3d 42 82 aa 3c 8a 67 1a bd
       -0.08696935 0.036408447 0.020814065 -0.0376964
000250 61 ba 24 3c 63 26 ee bd 4e f2 55 bd 1a 6c 82 bd
       0.010054202 -0.116284154 -0.052233033 -0.06368275
000260 90 32 30 3d ef 1c ef bc 6c e8 03 bb 8b b9 30 bd
       0.04301697 -0.029188601 -0.0020127548 -0.043145698
000270 42 54 e8 3c 39 cd 84 3d 79 ea cf bb 26 c2 52 bc
       0.02836049 0.064844556 -0.00634509 -0.012863671
000280 a6 e2 4d 3d 18 62 c7 bb 8f 71 5b bd 76 af 6c bd
       0.050264977 -0.0060846917 -0.053575095 -0.05778452
000290 b2 69 96 bd 8e 4c 8b 3c 83 22 03 3c 15 24 02 3d
       -0.073443785 0.017004278 0.008003834 0.03177269
0002a0 8f 23 1e bc d6 b5 f7 3b 18 33 cc 3c 07 23 b5 bc
       -0.0096520325 0.0075595183 0.024926707 -0.022111429
0002b0 4e 26 b2 bd 0c 75 a7 bd 5a 4f 94 bd ae 46 85 3d
       -0.08698712 -0.08176622 -0.072416976 0.06507622
0002c0 37 e3 13 bc b3 3c ad bd 63 52 ad bc 7f e5 e9 3d
       -0.00902634 -0.08458843 -0.02115745 0.11420726
0002d0 5a 62 fb 3d 23 35 0b be a9 8f 6b be b5 09 4d 3c
       0.122746184 -0.13594489 -0.23004021 0.012514521
0002e0 86 2f d5 3d 17 87 b7 3b a7 5f 80 be bb fc b5 bb
       0.10409455 0.0056008208 -0.25072977 -0.0055538095
0002f0 f2 af 5e 3e f6 a9 78 bd fa c5 3e 3c 6d 34 36 be
       0.21746805 -0.060708962 0.011643881 -0.17793436
000300 f0 e2 c1 3b 09 bf 7e 3e 34 b5 9e bd 7d 16 f5 3d
       0.0059169456 0.24877562 -0.077494055 0.1196718
000310 f4 48 90 bd 8b b9 e4 3b c2 f6 15 3e ad b7 1a bd
       -0.07045165 0.0069801263 0.14644912 -0.037772823
000320 22 43 90 bc 3a 17 a2 bd 61 dc 0d bc 4a 1a 24 bd
       -0.017610136 -0.07914586 -0.008658499 -0.040064134
000330 44 f1 fc bc b0 ad cd bb 5f b9 68 bc 40 9e f6 bd
       -0.030876763 -0.0062768087 -0.014204352 -0.120419025
000340 e7 bc 4e bd f8 3c fe bc 52 5a e8 bc 83 73 b2 bd
       -0.05047312 -0.031034932 -0.02836338 -0.08713438
000350 46 91 cc bd 65 a1 7d bc 2d fd 48 bd b4 13 13 bd
       -0.09988646 -0.015480374 -0.049069572 -0.035907462
000360 53 50 b6 bc 75 57 bc bd 6e ac d0 bc 6f c1 1e bd
       -0.022255098 -0.091963686 -0.025472846 -0.03875869
000370 d9 b1 f7 bd a3 18 90 ba 5f 7a ae 3c c3 28 87 3c
       -0.120944686 -0.001099367 0.021298585 0.016498929
000380 47 a3 51 bb b0 08 1f 3d 03 6e 3b 3d 20 81 a6 bc
       -0.003198819 0.038826644 0.045759212 -0.020325243
000390 d1 5c 9c bd a1 08 44 3d a7 e7 d8 3d 06 8c 35 bd
       -0.07634891 0.04785979 0.10591059 -0.04432299
0003a0 7f 63 2e be e0 52 4e 3d dd 7a 5c 3e cc 0b 8e 3d
       -0.17030142 0.050372005 0.21531244 0.06935844
0003b0 58 51 b0 bd a8 14 49 bd 90 97 93 3e a9 e0 9b 3d
       -0.08609265 -0.049091965 0.2882657 0.0761121
0003c0 7d e1 e0 3b 97 ae 15 be 70 8e ea 3d a6 b9 22 3e
       0.006862818 -0.14617382 0.11452949 0.15891132
0003d0 6b 80 12 bd cc 2b a6 3d b6 51 10 3d ca 23 6c bc
       -0.035767 0.08113822 0.035234176 -0.01441283
0003e0 59 84 0b 3d 8d d5 db bd eb 11 ab bd 09 c8 4d bc
       0.034061763 -0.10734091 -0.08353027 -0.012559899
0003f0 2a 97 d1 bc da a9 51 bd 4f 8f d6 bd f0 a6 b6 bb
       -0.025584776 -0.051187374 -0.10476553 -0.0055740997

bias f4 [20]
000000 da 16 fe 3b 23 ac dc bc 89 62 36 bc 92 3b a6 bd
       0.007754189 -0.02693755 -0.011131891 -0.08116831
000010 41 4b a4 3b 5c a2 5e 3d 5e 8b d6 3c 6e 21 a7 bc
       0.005013854 0.054354057 0.026189502 -0.020401683
000020 7c d1 64 bd 2c 1c e9 bd 8a 5e a7 bc 00 5d 0d 3c
       -0.055863842 -0.113823265 -0.020430822 0.00862813
000030 9e 77 b8 bd f2 77 e3 bd cc 76 14 3c bd 96 f2 bd
       -0.0900719 -0.11106862 0.0090615265 -0.11845157
000040 fb 2a 87 3b 87 e6 38 be 3d ca 90 bd 47 74 1b 3d
       0.0041249967 -0.18056689 -0.07069824 0.037952688

weight f4 [50, 320]
000000 b1 5b 23 3d 9b 5d 84 bd 2e ae 37 bd 0c 38 14 3d
       0.039882366 -0.06463166 -0.044843845 0.036186263
000010 d9 99 a3 bd a0 5f 24 3d 9a d7 c0 3d eb 63 2d 3d
       -0.079883285 0.040130258 0.09416123 0.042331617
000020 a0 3c 12 bc 08 11 43 3d 80 6e 57 bd 4d 65 55 bc
       -0.008925587 0.047623664 -0.052595615 -0.01302464
000030 76 05 04 bd 2d 43 7a bc fa c7 89 3d 82 ea e3 bc
       -0.03223177 -0.015274805 0.067275956 -0.027821783
000040 02 8d 93 3d 35 c0 ca 3c 97 91 ea bc 18 4e 6f bd
       0.072046295 0.024749855 -0.028633876 -0.058424085
000050 09 f3 a8 3d 9c b4 32 bd f2 f9 af 3c 8e 7f ee 3c
       0.0824948 -0.043629274 0.021481488 0.029113557
000060 e2 1b 86 3c 31 46 50 3d 8e 2b 5c 3d 2d a5 04 bd
       0.016370717 0.05084819 0.053752474 -0.032384086
000070 c0 78 32 bd b2 28 01 bd c3 c5 2f 3d c5 b8 19 bc
       -0.043572187 -0.03153295 0.04291321 -0.009382431
000080 79 43 83 bc 9b a3 60 3d 58 7e 5c bb ec 8a 64 3b
       -0.016023384 0.054843526 -0.0033644643 0.0034872843
000090 9c 71 19 3e 2c 4c d5 3b 3d 0a 83 bd b9 8a 12 3d
       0.14984745 0.0065093245 -0.06398437 0.035776827
0000a0 bd 02 6d 3d 77 a3 88 3c 2d 2b 17 3d 42 ce f0 bb
       0.05786394 0.016679509 0.03690641 -0.0073488066
0000b0 da 16 8c bd d5 e9 b4 3c 71 67 50 39 7a 90 03 bd
       -0.06840296 0.022084156 0.0001987496 -0.032120205
0000c0 34 df f3 3b 69 c8 a1 3d ef 58 fa 3d 8b be 23 bc
       0.0074423794 0.07899553 0.12223994 -0.009994159
0000d0 7a 6f 55 bd 4b 74 ab bd 3b 4a f2 bb b4 54 80 bd
       -0.052108265 -0.083717905 -0.007394103 -0.06266156
0000e0 51 cd cd bd 7c 6a fb 3d f1 0a e3 3c ee 0f 9b bb
       -0.100489266 0.1227617 0.027715178 -0.0047321236
0000f0 34 a4 3b bd 54 1c 79 3d ec 8e 73 3c 60 24 96 3d
       -0.045810893 0.06081803 0.014865618 0.07331157
000100 e4 4d d5 3c 47 38 9d 3c bf 15 51 3d 0b bd a1 3d
       0.026038118 0.019191874 0.05104613 0.07897385
000110 fd 20 45 bc ef 70 cf 3a 54 14 de 3c e5 8e 40 3d
       -0.012031791 0.0015826504 0.027109303 0.047011275
000120 d8 47 a8 bc 59 78 fd bc c5 9e db bc 17 b7 3b bd
       -0.02054207 -0.030941175 -0.026809106 -0.045828905
000130 c2 28 80 bc 2b 67 00 3d 65 00 b1 3d f1 e6 a7 bd
       -0.015644435 0.03134839 0.086426534 -0.081983455
000140 9d 2a 0e bc 52 8d ca bd 5d cc 22 3c 95 d3 c8 bd
       -0.008677152 -0.09890236 0.009936419 -0.09805981
000150 e3 82 98 3d 69 0a 62 3d f0 4b 96 3d 4e ac e1 bd
       0.0744684 0.05518571 0.07338703 -0.11019193
000160 ea f3 40 3d 5a c4 46 bd 96 f2 80 3c b0 ce c1 3b
       0.047107615 -0.0485271 0.015740674 0.0059145316
000170 ac a5 35 3c 30 d6 a3 3d fb f6 47 3d ed bb 72 bd
       0.0110868625 0.079998374 0.048819523 -0.05926125
000180 7d e2 8e bd c5 ec 61 bd 7c 32 67 3c 60 5f 06 3d
       -0.06976793 -0.05515744 0.0141111575 0.0328058
000190 fd 1d b5 bc 0e 85 bd bc 09 c5 23 bc bc ee aa 3d
       -0.022109026 -0.023134734 -0.009995707 0.08346316
0001a0 61 71 d5 bc 78 a7 35 3b f8 50 97 bc d1 52 3d 3d
       -0.02605504 0.0027718227 -0.018471226 0.046221558
0001b0 73 47 7f 3c 9e 6e d5 bc 4e eb 31 bd b4 66 31 bd
       0.015581 -0.026053723 -0.043437295 -0.043310836
0001c0 9f c9 88 3d c8 23 76 3d 8f 99 f8 3d ac 91 50 bd
       0.06679081 0.060092717 0.12138664 -0.050920174
0001d0 62 45 15 bd f3 1c 8b bc 1a 5d c6 3b 5b fc 4b bd
       -0.03644312 -0.016981578 0.006053579 -0.04980121
0001e0 7d a0 82 bd c8 54 be 3c 35 e0 b0 3c 8c 8b 0d bd
       -0.06378267 0.023233786 0.021591285 -0.03455691
0001f0 a4 99 9f bd de d9 6a 3d 16 18 8f bb f9 2e 9c 3c
       -0.077929765 0.05733668 -0.004366885 0.019065367
000200 36 31 98 bd 5d 49 d1 bc 9e 4f 0c 3c 72 ca a9 3b
       -0.07431261 -0.025547678 0.008563904 0.005181604
000210 cd 66 3c bd 0a 03 eb bd 5e cc 4c 3c 71 15 8e 3d
       -0.045996476 -0.11475189 0.012499897 0.069376834
000220 92 d9 0d bd 83 6a 92 3d e9 77 35 3d c1 f3 69 3d
       -0.03463132 0.07149222 0.04430381 0.057117227
000230 15 8f 0e bd 7c 48 bc bd db 48 d5 3b e1 57 b6 3c
       -0.034804422 -0.09193513 0.006508929 0.0222587
000240 a9 c0 87 bd 9e ec 98 bd 4d 19 f3 3c 17 f5 88 bc
       -0.06628544 -0.07467006 0.02967515 -0.01671843
000250 2e 5d 92 bc b4 b3 2f bc 2d a9 53 3d a9 1f 63 bd
       -0.017866697 -0.010723997 0.05167501 -0.055450115
000260 98 4c ef 3c 36 85 74 bd 77 c0 d6 3c e7 b5 31 3d
       0.029211327 -0.059697352 0.026214821 0.043386366
000270 84 b8 b7 3d 7d 26 7d 3c 92 79 c0 3c 95 31 cd 3d
       0.089707404 0.015451071 0.02349547 0.10019223
000280 c5 17 8e 3c 51 3b 9f 3c 6a 31 25 bc d2 d1 3a 3d
       0.017345319 0.019437464 -0.010082582 0.045610256
000290 21 5a 48 bd 1a 0e 70 3c f5 ee 25 3d 32 3c 66 3d
       -0.04891408 0.0146518 0.04051109 0.05620975
0002a0 43 2a 92 bd ee 48 d1 bd cd c7 2d 3d 01 00 44 3d
       -0.07136967 -0.10218988 0.042426873 0.047851566
0002b0 54 d6 e6 bc 09 8a c4 bb 3c c8 19 bd 1a 24 3a 3c
       -0.028178371 -0.0059979004 -0.037544474 0.011361146
0002c0 9f d0 98 bc 3c 74 0a 3c 3b 32 e3 3d 3d 4b 83 3d
       -0.018654166 0.008450564 0.11093565 0.06410835
0002d0 64 61 f8 bc 98 1a 4b bd f5 72 77 3d 65 e4 5e 3d
       -0.030319877 -0.04958591 0.060412366 0.054417033
0002e0 ea 70 36 bd f6 6c 53 bd 43 48 9f bc 97 c1 d5 3c
       -0.044541277 -0.051617585 -0.019443637 0.026093287
0002f0 f7 34 5e bd 0d dc b8 3c 2b a9 9a bc 86 ad cf bd
       -0.05424973 0.022565866 -0.018879494 -0.10140519
000300 73 ca b8 3c c9 b0 a9 3d 99 98 80 3d b4 3f 14 bd
       0.022557473 0.08285672 0.06279106 -0.036193565
000310 00 b5 3c bd dd b1 3a bd f1 1e 92 bd 92 d3 8a bc
       -0.046071053 -0.04557978 -0.07134808 -0.016946588
000320 97 6c 66 bd 2d ae b2 bd b5 7c 82 3d 49 e8 eb bb
       -0.056255903 -0.08724628 0.06371442 -0.0071993214
000330 74 0e c4 3d b3 59 b2 bd b9 9a 24 3d ad 6c 2d 3e
       0.09573069 -0.08708515 0.040186618 0.16935988
000340 91 4c ab 3d 09 13 25 bc c0 e6 4e bd 1b 13 28 3b
       0.08364213 -0.010075339 -0.05051303 0.0025646153
000350 31 30 80 bc fb cf 94 bc bf 80 47 bd 12 7b 6a 3d
       -0.01564798 -0.018165579 -0.048706766 0.057246275
000360 50 77 b7 3b 34 07 b7 bc 40 dc 77 bd ba bb ec 3c
       0.00559894 -0.022342302 -0.06051278 0.028898109
000370 77 0d 4a 3d 4d 18 f6 3c 30 5f 89 3c 62 08 39 3c
       0.049329247 0.030040884 0.016769022 0.0112935025
000380 6f 6d d7 bc 27 be 98 bd bd b6 e4 b9 38 77 91 3c
       -0.0262973 -0.07458144 -0.000436237 0.017757043
000390 7e 8f 57 bc e4 78 11 bc 46 7d 23 bd 55 3e 6e 3b
       -0.01315677 -0.00887892 -0.039914392 0.003635307
0003a0 14 19 2a bd 83 6e 4c 3c ba fa 0d bd 2e 5b dc 3d
       -0.041527823 0.01247752 -0.03466294 0.10759579
0003b0 10 87 ea 3d 1a b7 6c 3c 58 29 2f bd 63 1c f1 3c
       0.114515424 0.014447952 -0.042764038 0.029432481
0003c0 95 6d 4c bd 50 c7 8d 3b 69 cc 06 3e a3 83 d0 3d
       -0.049909193 0.0043267384 0.13163914 0.10181358
0003d0 cb b7 a5 bd d8 52 6d 3d 72 df 08 3d 66 fb 87 bd
       -0.08091696 0.057940334 0.03341622 -0.06639747
0003e0 d3 a4 c9 bd ab 7a d3 37 f5 9f a3 3c c2 6d 72 3b
       -0.09845891 2.5210282e-05 0.019973734 0.003699169
0003f0 de 9a 90 bd a0 86 97 bc 37 44 d4 bc ad f8 eb 3c
       -0.070607886 -0.018496811 -0.025911434 0.028805101

bias f4 [50]
000000 4c 34 3a 3d d3 46 6c 3d c0 4c 98 3d 72 78 f6 bc
       0.04546003 0.05768473 0.07436514 -0.03008673
000010 5a 20 e1 ba eb 25 d4 3d 02 6a ca 3d b3 9a 3a 3d
       -0.0017175779 0.10358795 0.09883501 0.04555769
000020 49 65 98 3c c5 be 7c bc 46 8a ff 3b 8f e8 bd 3d
       0.018602984 -0.015426342 0.007798466 0.09272873
000030 37 05 18 3e a9 9c 8a 3c f2 be b0 3d 30 e9 b5 ba
       0.1484574 0.016920405 0.0863017 -0.0013878699
000040 a6 49 05 3d 83 67 4c 3d 91 70 17 3c 8c 8e 60 bc
       0.03254094 0.049903404 0.0092431465 -0.013705861
000050 c4 bc 47 3c 53 6a 5b 3d 29 57 b8 3d d6 60 20 3d
       0.012191001 0.053568196 0.090009995 0.03915485
000060 6d 76 85 3c 6e c6 8b bc b0 45 04 3d a1 d5 4a bd
       0.016291821 -0.017062392 0.03229302 -0.04952014
000070 fe 83 a0 3c 42 e6 6f bd 86 43 a6 3c 66 e5 d2 3b
       0.019594189 -0.0585692 0.02029587 0.006436038
000080 f8 e4 9e bc 5e 41 b9 3d a6 9f 06 bb 18 ab 26 3d
       -0.01939629 0.09045671 -0.0020541935 0.04069051
000090 37 52 ea 3c d5 f4 10 3c 52 c7 1f 3d f9 a8 fc 3c
       0.028603656 0.008847435 0.039008446 0.030842291
0000a0 05 ce 62 3d c0 28 3f 3d 22 75 4c 3d 8a a2 6c 3d
       0.055372257 0.04666972 0.049916394 0.057772197
0000b0 44 0a 1a bd 65 84 44 3a ec 8e d9 3d ac 0c 38 3c
       -0.037607446 0.0007496535 0.10622963 0.01123349
0000c0 16 7a d9 3d 59 bc ed bc
       0.10618989 -0.029020475

weight f4 [10, 50]
000000 77 7b 8a be 9c a7 04 be 9b 8a 67 be 46 40 51 be
       -0.2704732 -0.12954563 -0.22611468 -0.20434675
000010 1a 6c 74 3e a1 26 77 3e 62 37 6c 3e f1 ae 2c be
       0.23869362 0.2413583 0.23068002 -0.1686361
000020 e3 0e 48 3e c3 89 58 be 67 7e 93 be c0 58 68 3e
       0.19536929 -0.21146302 -0.28807375 0.22690105
000030 8a ab c8 bd bf a9 35 bd cb 17 14 3e 1d 33 9b bd
       -0.097983435 -0.044351336 0.14462201 -0.075781085
000040 ef c7 5b 3e 01 a9 cd bd f9 60 42 3e ae 77 07 be
       0.21462987 -0.100420006 0.18982305 -0.13229248
000050 e0 d9 4f be 20 c5 ba bd f5 f7 97 be 29 e1 19 3e
       -0.20297956 -0.0911963 -0.29681364 0.15027298
000060 28 6e 01 be db 0d f5 bd 9f 60 35 3e 35 61 7d be
       -0.12639678 -0.11965533 0.1771264 -0.24744113
000070 7a 0d 65 3d 9b af c2 3c 6f 47 3d 3e e8 25 4d 3e
       0.055921055 0.023765376 0.18484281 0.20033991
000080 17 85 03 be 03 f0 2d be 32 3b 60 be 02 4a 14 be
       -0.12843738 -0.16986088 -0.21897581 -0.14481357
000090 0f 77 cf be 7c 6d 6c 3e c5 8a 47 be 88 47 80 3e
       -0.40520522 0.2308864 -0.1948653 0.25054574
0000a0 02 de ed bd d5 a7 b4 3d cb 93 1b 3e 28 95 35 be
       -0.1161461 0.08821074 0.15193097 -0.1773268
0000b0 7d 99 d3 bd 8d d6 1e be 1e 31 b7 bc 4c e1 07 bd
       -0.1033201 -0.15511532 -0.022362288 -0.033173844
0000c0 8f 61 66 3e e9 a4 33 be 40 31 80 3e f9 b8 c2 3e
       0.22498153 -0.17543377 0.25037575 0.38031748
0000d0 d3 c7 65 3e 49 78 32 be 7a cd 9c be 68 aa 10 be
       0.22439508 -0.17428698 -0.30625516 -0.14127505
0000e0 dc e0 85 be 03 83 71 3d 54 92 b9 bd f8 8a 34 bd
       -0.26148117 0.058962833 -0.09061113 -0.044077843
0000f0 94 68 45 be d8 19 ac 3d 02 f8 6e 3e 31 01 8c be
       -0.19278175 0.08403367 0.23336795 -0.2734466
000100 5c c7 bd be 03 29 51 be 72 0e a1 be 2d 80 3c 3e
       -0.37066162 -0.20425801 -0.31456333 0.1840827
000110 3e 62 0c 3e cd 0d e5 3d 94 ba 1d 3e 55 35 86 3e
       0.13709351 0.11184273 0.15403205 0.26212564
000120 44 c9 00 3e 18 e8 3e be da 4e 62 be 77 94 c0 bd
       0.12576777 -0.18643224 -0.22100392 -0.094033174
000130 36 b2 14 3e 41 7b 56 be 18 cd 8d be b0 ee 42 3d
       0.14521107 -0.20945455 -0.27695537 0.04759091
000140 a6 37 4d be 1a 99 06 be 77 ea 63 3e ae 5c 78 3e
       -0.2004076 -0.13144341 0.2225741 0.24254104
000150 1a 4c 99 be 9b 41 9e 3e 4d 63 f8 3d 24 0e 9a be
       -0.29940873 0.30909428 0.12128315 -0.30088913
000160 83 66 2e be 6e 6e 10 be 68 db 86 3e 6a ac 92 bd
       -0.17031293 -0.14104626 0.2633927 -0.071617916
000170 11 4a 3a be 32 f5 9a 3e e6 a6 13 3e 48 11 a8 be
       -0.18192317 0.30265194 0.14419135 -0.32825685
000180 98 aa 6a 3e 31 10 73 3e 7d b1 8d 3e a7 05 58 be
       0.22916639 0.23736645 0.27674475 -0.21095906
000190 44 a7 4f 3e 03 52 a5 3e 8d 22 68 3e 7f 9e 36 be
       0.2027865 0.32289132 0.2266943 -0.17833899
0001a0 0c 88 1a 3e ea 81 0a 3e 92 09 3f 3e b4 1b 46 3e
       0.1509096 0.13526121 0.18655995 0.19346505
0001b0 df 0b 9d 3d cf d9 40 3e 37 87 5e be 10 a7 68 3e
       0.0766828 0.18833087 -0.21731268 0.2271998
0001c0 f9 c8 0b 3d f9 58 7b be ad a8 a9 3d 85 1b 8c 3e
       0.03412721 -0.24545659 0.082841255 0.27364746
0001d0 56 ac 3e bc 77 db 68 be 9c b0 39 be 7d 68 af bd
       -0.011637768 -0.22739969 -0.18133777 -0.085648514
0001e0 a1 af 9c be 3f 93 b0 bd 77 6d 5e 3e f8 9f 22 be
       -0.30602744 -0.08621835 0.21721445 -0.15881336
0001f0 3f a3 44 bd 20 e8 66 3e ea 8b 40 3e 58 27 27 3e
       -0.048007246 0.22549486 0.18803373 0.16323602
000200 da 79 59 3d a9 c5 dc bd b6 59 14 3e 62 4a 34 3e
       0.053094722 -0.10779888 0.14487347 0.176065
000210 7a fc 7e be bf 14 3d 3e 69 34 11 be 98 1b a0 bc
       -0.24901 0.18464945 -0.14180149 -0.019544408
000220 96 8d 21 be 68 0b 12 3c 29 27 95 3d db 34 40 be
       -0.15776667 0.008913852 0.0728286 -0.18770163
000230 af 20 51 bc 59 47 02 be 98 97 24 be 9d b5 0a be
       -0.01276414 -0.1272253 -0.16073453 -0.13545842
000240 ac e5 64 3e 1c 01 0f be a2 7e 03 be 25 7a c6 3d
       0.22353238 -0.13965267 -0.12841275 0.09691266
000250 cf 87 42 be df 88 45 3e 9e 3e 64 3e c9 80 d8 bd
       -0.1899712 0.19290493 0.22289512 -0.10571439
000260 02 8d 27 3e ce ea 84 3e 94 8b 26 be 7e 3f 4e 3e
       0.16362384 0.25960392 -0.16264182 0.20141408
000270 59 82 b3 bd 98 c2 2c be 29 98 c9 3d 79 a7 3c 3e
       -0.08765096 -0.16871107 0.09843475 0.18423261
000280 e2 ef 39 3e 61 dd 55 3e c1 ca 68 3e f9 be 35 be
       0.18157914 0.2088523 0.22733594 -0.17748632
000290 b0 b6 3b bd 3b b1 6d bd aa 3b 59 3e c2 d5 9d be
       -0.04582852 -0.05803035 0.21214166 -0.30827147
0002a0 15 c9 50 be 90 26 8f 3e 3a 8d 66 3e 0c b5 5f bd
       -0.20389207 0.27959108 0.22514811 -0.05461602
0002b0 0f e5 ce 3d 1c bd 87 be c1 fb 1d be 44 97 31 3e
       0.10102283 -0.26511467 -0.15428068 0.1734286
0002c0 36 5c 79 3d a3 e7 e5 3d 30 ca 14 be 44 60 a6 bc
       0.060878955 0.11225822 -0.14530253 -0.020309575
0002d0 fe b2 ef 3d bf cc 53 be 58 e6 97 3e cc 1e 42 be
       0.11704062 -0.20683573 0.29667926 -0.1895706
0002e0 9e a5 2f bd 43 f8 b4 bb 1f 40 32 3e d3 37 f9 bd
       -0.042882554 -0.005522759 0.17407273 -0.12168851
0002f0 d2 8f 81 3e 9f 51 45 be b5 88 bb be 22 90 5e be
       0.2530504 -0.19269417 -0.36627737 -0.2173467
000300 e7 d7 e5 3c 39 fe 86 be 73 e6 8a bc a2 e0 5a be
       0.028057052 -0.26365831 -0.01695559 -0.21374753
000310 e5 cc 83 be a9 ab 18 be d2 f8 00 be ec ff 61 3e
       -0.2574226 -0.14909233 -0.12594917 0.22070283
000320 d0 0e 6b be 5a b4 05 be c2 ee 42 3d 91 a5 a9 3c
       -0.2295487 -0.1305708 0.04759098 0.020708831
000330 c3 a5 5b 3e 20 08 10 be d0 52 98 be 5c 5a 30 3e
       0.21449952 -0.140656 -0.2975068 0.1722197
000340 ab df 8c be 96 e0 27 3e 13 a7 25 3e 20 32 8c be
       -0.27514395 0.16394266 0.16177015 -0.27381992
000350 8a a8 7e be e9 af 8e 3e a8 78 db 3d de 45 d4 bd
       -0.2486898 0.27868584 0.10716373 -0.103648886
000360 c4 31 ed bd df 56 21 3e a5 98 80 be ba 4c ec bd
       -0.11581758 0.15755795 -0.2511646 -0.11538072
000370 c7 de 30 3e 19 f0 8e 3e 3d 77 7e be 83 9a 1c bd
       0.17272483 0.27917555 -0.24850173 -0.03823329
000380 a3 30 86 3e 9d 08 95 be bd 15 54 bd e1 0a 71 be
       0.26208982 -0.29108134 -0.051778544 -0.23539306
000390 f3 bb b8 3e 73 8a d8 3c b8 c8 a0 be f7 f0 72 bd
       0.36080894 0.026433205 -0.31403136 -0.059311833
0003a0 6a ce a0 bd 17 81 76 3e 59 03 c5 3d 79 e7 35 3e
       -0.0785187 0.24072681 0.09619779 0.17764081
0003b0 23 53 3b 3e 48 c8 b7 be 2f 73 63 3e c0 68 56 be
       0.18293433 -0.3589499 0.22211908 -0.20938396
0003c0 6f 1f 90 3e 44 cd 06 be cf b9 7b 3d 87 07 ec bd
       0.28148982 -0.1316424 0.061456498 -0.11524873
0003d0 33 52 48 3e e9 91 5e 3e 64 54 3f be 48 26 48 3e
       0.19562607 0.21735348 -0.18684536 0.19545853
0003e0 db 8d 68 be 3e 12 88 be 97 f9 0d be b4 95 8d bd
       -0.22710364 -0.26576418 -0.13864742 -0.06913319
0003f0 1e e2 83 be 39 c0 89 3e 4b 43 05 be 0e 20 17 3e
       -0.2575845 0.26904467 -0.13013951 0.14758322

bias f4 [10]
000000 50 62 b9 3d 40 8e 6d 3e 2c 3f 92 bc 40 b1 68 3d
       0.09051955 0.23198795 -0.017852388 0.056809664
000010 c6 85 b5 3c bc b2 cf bd 54 bf e1 bd b3 a8 d3 bd
       0.022158515 -0.10141513 -0.11022821 -0.10334911
000020 cd 3c ae 3d 4b 43 8f 3d
       0.085076906 0.06995257
